…
,"application/vnd.jupyter.widget-view+json":{"version_major":2,"version_minor":0,"model_id":"96f6fa3524b244a3913ea8729b444fac"}},"metadata":{}},{"output_type":"display_data","data":{"text/plain":"generation_config.json:   0%|          | 0.00/168 [00:00<?, ?B/s]","application/vnd.jupyter.widget-view+json":{"version_major":2,"version_minor":0,"model_id":"d586bf2d7c9b4444bca0d9ffb9380ec5"}},"metadata":{}},{"execution_count":5,"output_type":"execute_result","data":{"text/plain":"IndicTransForConditionalGeneration(\n  (model): IndicTransModel(\n    (encoder): IndicTransEncoder(\n      (embed_tokens): Embedding(122706, 512, padding_idx=1)\n      (embed_positions): IndicTransSinusoidalPositionalEmbedding()\n      (layers): ModuleList(\n        (0-17): 18 x IndicTransEncoderLayer(\n          (self_attn): IndicTransAttention(\n            (k_proj): Linear(in_features=512, out_features=512, bias=True)\n            (v_proj): Linear(in_features=512, out_features=512, bias=True)\n            (q_proj): Linear(in_features=512, out_features=512, bias=True)\n            (out_proj): Linear(in_features=512, out_features=512, bias=True)\n          )\n          (self_attn_layer_norm): LayerNorm((512,), eps=1e-05, elementwise_affine=True)\n          (activation_fn): GELUActivation()\n          (fc1): Linear(in_features=512, out_features=2048, bias=True)\n          (fc2): Linear(in_features=2048, out_features=512, bias=True)\n          (final_layer_norm): LayerNorm((512,), eps=1e-05, elementwise_affine=True)\n        )\n      )\n      (layer_norm): LayerNorm((512,), eps=1e-05, elementwise_affine=True)\n      (layernorm_embedding): LayerNorm((512,), eps=1e-05, elementwise_affine=True)\n    )\n    (decoder): IndicTransDecoder(\n      (embed_tokens): Embedding(122672, 512, padding_idx=1)\n      (embed_positions): IndicTransSinusoidalPositionalEmbedding()\n      (layers): ModuleList(\n        (0-17): 18 x IndicTransDecoderLayer(\n          (self_attn): IndicTransAttention(\n            (k_proj): Linear(in_features=512, out_features=512, bias=True)\n            (v_proj): Linear(in_features=512, out_features=512, bias=True)\n            (q_proj): Linear(in_features=512, out_features=512, bias=True)\n            (out_proj): Linear(in_features=512, out_features=512, bias=True)\n          )\n          (activation_fn): GELUActivation()\n          (self_attn_layer_norm): LayerNorm((512,), eps=1e-05, elementwise_affine=True)\n          (encoder_attn): IndicTransAttention(\n            (k_proj): Linear(in_features=512, out_features=512, bias=True)\n            (v_proj): Linear(in_features=512, out_features=512, bias=True)\n            (q_proj): Linear(in_features=512, out_features=512, bias=True)\n            (out_proj): Linear(in_features=512, out_features=512, bias=True)\n          )\n          (encoder_attn_layer_norm): LayerNorm((512,), eps=1e-05, elementwise_affine=True)\n          (fc1): Linear(in_features=512, out_features=2048, bias=True)\n          (fc2): Linear(in_features=2048, out_features=512, bias=True)\n          (final_layer_norm): LayerNorm((512,), eps=1e-05, elementwise_affine=True)\n        )\n      )\n      (layer_norm): LayerNorm((512,), eps=1e-05, elementwise_affine=True)\n      (layernorm_embedding): LayerNorm((512,), eps=1e-05, elementwise_affine=True)\n    )\n  )\n  (lm_head): Linear(in_features=512, out_features=122672, bias=False)\n)"},"metadata":{}}],"execution_count":5},{"cell_type":"code","source":"from IndicTransToolkit.processor import IndicProcessor\n\n# Instantiate the processor for inference tasks\nip = IndicProcessor(inference=True)","metadata":{"trusted":true,"execution":{"iopub.status.busy":"2025-10-03T06:19:05.782433Z","iopub.execute_input":"2025-10-03T06:19:05.7
…
